Found 35288 images belonging to 43 classes.
Found 3921 images belonging to 43 classes.
Found 12630 images belonging to 43 classes.
Model: "model"
_________________________________________________________________
 Layer (type)                Output Shape              Param #   
=================================================================
 input_1 (InputLayer)        [(None, 60, 60, 3)]       0         
                                                                 
 conv2d (Conv2D)             (None, 58, 58, 32)        896       
                                                                 
 max_pooling2d (MaxPooling2D  (None, 29, 29, 32)       0         
 )                                                               
                                                                 
 batch_normalization (BatchN  (None, 29, 29, 32)       128       
 ormalization)                                                   
                                                                 
 conv2d_1 (Conv2D)           (None, 27, 27, 64)        18496     
                                                                 
 max_pooling2d_1 (MaxPooling  (None, 13, 13, 64)       0         
 2D)                                                             
                                                                 
 batch_normalization_1 (Batc  (None, 13, 13, 64)       256       
 hNormalization)                                                 
                                                                 
 conv2d_2 (Conv2D)           (None, 11, 11, 128)       73856     
                                                                 
 max_pooling2d_2 (MaxPooling  (None, 5, 5, 128)        0         
 2D)                                                             
                                                                 
 batch_normalization_2 (Batc  (None, 5, 5, 128)        512       
 hNormalization)                                                 
                                                                 
 global_average_pooling2d (G  (None, 128)              0         
 lobalAveragePooling2D)                                          
                                                                 
 dense (Dense)               (None, 128)               16512     
                                                                 
 dense_1 (Dense)             (None, 43)                5547      
                                                                 
=================================================================
Total params: 116,203
Trainable params: 115,755
Non-trainable params: 448
_________________________________________________________________
Evaluating validation dataset

 1/62 [..............................] - ETA: 2:02 - loss: 0.0692 - accuracy: 0.9688
 4/62 [>.............................] - ETA: 1s - loss: 0.0509 - accuracy: 0.9805  
…
